mlp_fashion_mnist_weights.pth (torch, 943420 bytes, 6 tensors)

fc1.weight f4 [256, 784]
0.039286815 0.05557307 0.0756493 0.08082536 0.07409278 0.04652584 0.059160784 0.0460413
0.0013046522 -0.04024562 0.03584407 0.09089155 0.00924083 0.1256834 0.05111268 0.009994253
0.08356879 0.12415271 0.011475989 0.012454439 -0.024333829 0.052338142 0.055244084 0.021906115
0.044487406 0.02152999 0.044317055 0.07138932 0.0630465 0.051576406 0.025734173 0.053775407
0.004234302 0.020248648 -0.033394974 -0.03535661 -0.039094035 0.079750046 0.034818955 0.0052054683
-0.1270327 -0.04868014 -0.06467652 -0.05961106 -0.051269475 -0.03526556 -0.003021063 -0.061618563
-0.14016713 -0.023075797 0.039890017 -0.007627741 0.03995079 0.058585823 0.06764588 0.064729996
0.041074097 0.04785399 0.051676378 0.019145284 0.0130021125 -0.0050779907 0.037134744 0.020357443
-0.11647125 -0.068904355 0.0113296965 -0.13583745 -0.10707962 -0.15807746 -0.17642902 -0.102911875
-0.18441443 -0.1203518 -0.09043905 -0.1347178 -0.057613574 -0.03855809 0.011321375 -0.027682446
0.050372455 0.08327094 0.028037965 0.03351631 0.08438276 0.081874385 0.078531854 0.050757844
-0.008936156 -0.019569427 -0.04252097 -0.07779487 -0.19359905 6.391565e-06 0.106994376 0.017916564
-0.0397199 0.017438922 -0.01577098 0.049310576 -0.0211339 0.02219636 0.07557724 -0.10669341
-0.14312181 -0.077790625 -0.0072300164 0.035103776 0.022778563 0.07805664 0.050542496 0.06720832
0.07504141 0.039968673 0.049237985 0.05558403 -0.026452003 -0.03894766 -0.016755294 -0.03154403
-0.11228155 -0.0012471678 0.051404435 0.0040994403 -0.05029246 0.058221813 0.009227323 0.022312459
-0.04942148 -0.03893438 0.031391192 -0.027130406 -0.112118416 -0.05455746 -0.0020104991 0.031798188
0.0359672 0.024138864 0.06882304 0.07904073 0.09591534 0.02469668 0.054405235 0.030755818
0.019064449 -0.019178111 -0.006567954 -0.06633101 -0.03391815 -0.03362342 0.0056327726 0.04764467
-0.07436321 -0.024134887 -0.12371882 -0.021334816 0.009688443 0.009053874 -0.056577627 -0.07678599
-0.1296585 -0.037977718 -0.02833815 0.025229944 0.019046562 -0.021591578 -0.0024023093 0.06974892
0.046228744 0.05474244 0.077326514 0.030688703 0.0065416037 -0.01373508 0.06454744 0.0038482912
-0.06575573 -0.06304908 -0.0795727 -0.023898397 -0.07957291 -0.064998284 -0.10156307 -0.105594106
-0.06700289 -0.010759432 0.11425011 0.09027065 -0.011586284 -0.004511784 -0.013346559 -0.035890084
0.04394219 -0.04579904 -0.07025652 0.0014619693 0.05760863 0.08084255 0.041758202 0.0390153
0.0013377202 -0.094398014 0.023002127 -0.014983276 -0.03596895 -0.011274617 -0.043417957 -0.08094704
-0.041716058 0.014666058 -0.023049733 -0.081620775 -0.16537704 -0.03641901 0.11490936 0.15819718
-0.03483445 -0.08809395 -0.08294464 -0.053243384 -0.007275041 -0.12466911 -0.18710327 0.02456323
0.09588191 0.024384005 0.030897666 0.03159446 -0.0804431 -0.06322679 -0.061885163 -0.044687405
-0.059205446 0.014651158 0.061513446 -0.062286634 -0.0147565305 0.035509072 0.015557633 -0.03577738
-0.10153065 -0.054328863 0.21522716 -0.058153506 -0.065283194 -0.12100084 -0.132476 -0.123268105
0.0707362 0.0138487 -0.10772916 0.076904625 0.034826692 0.0677438 0.027590763 -0.04214449
00000000: 36eb 203d 96a0 633d 05ee 9a3d c487 a53d
00000010: f5bd 973d e191 3e3d 9452 723d cd95 3c3d
00000020: dd00 ab3a 97d8 24bd 3bd1 123d 5925 ba3d
00000030: da66 173c 26b3 003e 885b 513d efbe 233c
00000040: 1d26 ab3d c743 fe3d c905 3c3c b40d 4c3c
00000050: bd57 c7bc 8560 563d 9f47 623d 7474 b33c
00000060: 6d38 363d a95f b03c cd85 353d 9034 923d
00000070: 861e 813d c841 533d 79d0 d23c 9a43 5c3d
00000080: e6bf 8a3b 7ee0 a53c 2bc9 08bd 18d2 10bd
00000090: 1121 20bd fe53 a33d 529e 0e3d a292 aa3b
000000a0: dc14 02be d464 47bd 2075 84bd ba2a 74bd
000000b0: f1ff 51bd 9f72 10bd 07fd 45bb bf63 7cbd
000000c0: f987 0fbe 7409 bdbc b763 233d 21f2 f9bb
000000d0: 71a3 233d b0f7 6f3d ec89 8a3d 2991 843d
000000e0: 503d 283d 8c02 443d 9caa 533d 92d6 9c3c
000000f0: d006 553c 4665 a6bb 9a1a 183d a7c4 a63c
00000100: 7b88 eebd ba1d 8dbd 31a0 393c f918 0bbe
00000110: 8f4c dbbd 0fdf 21be cfa9 34be 76c3 d2bd
00000120: 23d7 3cbe 017b f6bd 1c38 b9bd 77f3 09be
00000130: 36fc 6bbd 16ef 1dbd 4a7d 393c 4cc6 e2bc
00000140: 5953 4e3d f489 aa3d e0af e53c 6648 093d
00000150: ded0 ac3d c2ad a73d 4fd5 a03d 75e7 4f3d
00000160: f468 12bc 1050 a0bc 782a 2ebd eb52 9fbd
00000170: d43e 46be 2077 d636 de1f db3d c2c5 923c
00000180: 55b1 22bd 12dc 8e3c 2432 81bc e3f9 493d
00000190: 0021 adbc 24d5 b53c 3dc8 9a3d 1382 dabd
000001a0: 868e 12be b150 9fbd c6e9 ecbb fac8 0f3d
000001b0: 1c9a ba3c 29dc 9f3d a605 4f3d 84a4 893d
000001c0: 50af 993d 31b6 233d c5ad 493d 14ac 633d
000001d0: dfb1 d8bc 9587 1fbd 6642 89bc 5034 01bd
000001e0: dff3 e5bd 0278 a3ba 758d 523d 9954 863b
000001f0: 77ff 4dbd ff79 6e3d 332e 173c 9ec8 b63c
00000200: 2e6e 4abd a879 1fbd 0d94 003d 9640 debc
00000210: 579e e5bd a577 5fbd 94c2 03bb d13e 023d
00000220: 5852 133d debe c53c 18f3 8c3d 1be0 a13d
00000230: 436f c43d b150 ca3c 06d8 5e3d a0f3 fb3c
00000240: 0c2d 9c3c 6a1b 9dbc fe37 d7bb 8dd8 87bd
00000250: c2ed 0abd b6b8 09bd 1f93 b83b 0f27 433d
00000260: bd4b 98bd 87b6 c5bc 4b60 fdbd 5ac6 aebc
00000270: 46bc 1e3c b356 143c f1bd 67bd f941 9dbd
00000280: 33c5 04be 868e 1bbd 6825 e8bc 07af ce3c
00000290: 8907 9c3c d2e0 b0bc 1070 1dbb 86d8 8e3d
000002a0: 5a5a 3d3d 9c39 603d 5d5d 9e3d e066 fb3c
000002b0: f35a d63b 1a09 61bc 7331 843d 9d33 7c3b
000002c0: f1aa 86bd e01f 81bd 03f7 a2bd 92c6 c3bc
000002d0: 1ff7 a2bd d21d 85bd 4d00 d0bd b941 d8bd
000002e0: d038 89bd 5448 30bc f6fb e93d d2df b83d
000002f0: 66d4 3dbc 96d7 93bb 87ab 5abc 7b01 13bd
00000300: bafc 333d c697 3bbd a6e2 8fbd 8d9f bf3a
00000310: 07f7 6b3d c790 a53d a60a 2b3d 82ce 1f3d
00000320: 7156 af3a bf53 c1bd f56e bc3c 6a7c 75bc
00000330: 2d54 13bd 2cb9 38bc 07d7 31bd 90c7 a5bd
00000340: 75de 2abd e849 703c cbd2 bcbc cb28 a7bd
00000350: 9958 29be 1a2c 15bd 9955 eb3d 71fe 213e
00000360: 91ae 0ebd 9a6a b4bd e1de a9bd bc15 5abd
00000370: 7863 eebb 8552 ffbd 0098 3fbe d438 c93c
00000380: bc5d c43d f7c0 c73c 1a1d fd3c 3169 013d
00000390: 5abf a4bd 0c7d 81bd 4c7b 7dbd 240a 37bd
000003a0: 6981 72bd 690b 703c 86f5 7b3d 4520 7fbd
000003b0: 60c5 71bc f671 113d 71e5 7e3c 4d8b 12bd
000003c0: 4def cfbd f187 5ebd 8264 5c3e 5f32 6ebd
000003d0: 32b3 85bd 4acf f7bd caa7 07be fd73 fcbd
000003e0: 24de 903d a8e5 623c 1ba1 dcbd 2c80 9d3d
000003f0: 6fa6 0e3d 43bd 8a3d 0606 e23c b39f 2cbd

fc1.bias f4 [256]
-0.056514394 0.003907559 0.00727104 -0.005555074 -0.026210533 -0.053881694 -0.043774433 0.06390419
-0.06378881 -0.038307864 -0.065537944 0.012945251 -0.061750546 -0.057686906 -0.0030767936 -0.037388097
-0.034104217 -0.007549542 -0.042363524 -0.04252784 -0.0013454584 0.009692219 -0.049445238 -0.039012585
-0.06641395 -0.032459244 -0.020014226 0.008545715 0.001146026 -0.08548274 0.0013251575 -0.008083054
-0.011225366 0.064714044 -0.03346391 -0.08252158 -0.054619867 -0.049560845 -0.017583633 -0.050850485
-0.008589923 -0.010960439 -0.053996414 0.0448327 -0.020200677 -0.00523947 -0.027449075 -0.025289753
-0.04899857 0.023921508 0.018207597 -0.041676454 -0.027666437 -0.02816517 -0.0511235 -0.034815073
-0.007159224 -0.025441514 -0.014096544 -0.03407153 -0.0590104 0.014992627 -0.08723716 0.0015111433
-0.07019989 -0.07817959 -0.05202312 -0.030130658 -0.027792063 -0.05143599 -0.005790208 -0.007116562
-0.06910738 0.023347884 -0.028646138 -0.027226033 -0.05623525 -0.047606736 -0.0022228141 -0.075619295
-0.054344557 -0.1017259 -0.0015583326 -0.015318691 -0.0048337914 0.04174379 -0.031254623 0.038373485
-0.0880573 -0.08861471 -0.02564073 -0.058152143 -0.09149347 -0.014242467 -0.0031757515 -0.01789416
-0.014146092 -0.026608821 -0.061552297 -0.0062269773 0.0069249333 0.050712723 -0.07309313 -0.03268667
-0.03220555 0.01265677 -0.07808983 0.012456221 -0.011195148 -0.07305107 0.025888553 -0.029429251
-0.042216014 -0.05603701 -0.012293341 -0.014646668 0.012792471 0.01088493 -0.032340534 -0.05697037
0.07772476 -0.034593046 -0.0028556823 -0.056868885 -0.022902053 -0.06785354 -0.012184908 0.01299623
-0.028176218 0.009067408 -0.015336067 0.022465467 -0.056230813 -0.05051183 0.052387264 -0.015446578
-0.032070294 -0.05539393 -0.070475966 -0.07546764 -0.055172764 0.03752543 -0.04739998 -0.0016457575
-0.08761025 -0.061332077 -0.07940519 -0.04945283 -0.03694847 -0.027564978 -0.03137531 -0.07736413
-0.0018489751 -0.08382503 -0.051045194 0.046168987 0.0027155553 -0.02736717 -0.00084007386 -0.050311998
-0.01372684 -0.014335015 -0.009794997 0.076969616 -0.015771769 0.0086365165 -0.07641985 -0.009992562
-0.034126062 -0.02241371 -0.06358366 -0.054893777 -0.008798564 -0.04390931 0.0028859046 -0.073777065
-0.026293885 -0.07221881 -0.08560479 -0.07270531 -0.03846919 -0.03149385 -0.0063888016 0.026680881
-0.0110026905 -0.07032414 -0.056202244 -0.014159627 0.004668724 -0.05402797 -0.026420776 -0.03391227
-0.030461872 -0.09152611 0.0010899256 0.0102059385 -0.028653802 -0.011376962 -0.033584964 -0.014997939
-0.07210344 -0.022086034 -0.00121466 -0.034362704 -0.084959865 -0.037700877 -0.0062357583 -0.07043426
-0.06608224 -0.064714305 0.017294504 0.0007040996 0.07978991 -0.04449304 -0.068151414 -0.05993984
-0.048861146 -0.020741444 -0.04982952 -0.025401587 -0.025960157 -0.042066105 -0.019378312 -0.0028551836
-0.011771804 -0.048154052 0.0020185194 0.037189946 -0.09922569 -0.05896426 -0.081021115 -0.024987152
-0.048853632 -0.061712924 -0.00083482446 -0.035185963 -0.042738125 0.0066088326 0.0064114598 -0.08059073
0.03755297 0.0032769595 -0.04912738 0.030274699 -0.00956787 -0.08501701 -0.032986317 0.002359306
-0.046263006 -0.057587888 -0.06028513 -0.027375957 -0.010880572 -0.021887489 -0.0039225505 0.0033706205
00000000: a37b 67bd fb0a 803b e841 ee3b 5707 b6bb
00000010: 79b7 d6bc 0db3 5cbd d24c 33bd 33e0 823d
00000020: b5a3 82bd b5e8 1cbd c238 86bd 5118 543c
00000030: 24ee 7cbd 1b49 6cbd 08a4 49bb 4324 19bd
00000040: ddb0 0bbd 2662 f7bb 6085 2dbd ac31 2ebd
00000050: 185a b0ba 1dcc 1e3c 1787 4abd a9cb 1fbd
00000060: 0904 88bd fcf3 04bd e0f4 a3bc 5403 0c3c
00000070: 4036 963a 9311 afbd e8b0 ad3a c96e 04bc
00000080: 99ea 37bc cc88 843d 7411 09bd 1301 a9bd
00000090: 15b9 5fbd 5000 4bbd 8d0b 90bc 9948 50bd
000000a0: c0bc 0cbc 6a93 33bc 582b 5dbd 7ea2 373d
000000b0: e47b a5bc dcaf abbb e2dc e0bc 752c cfbc
000000c0: b9b2 48bd 0af7 c33c 1928 953c eeb4 2abd
000000d0: b9a4 e2bc a5ba e6bc e066 51bd 409a 0ebd
000000e0: ec97 eabb b96a d0bc 31f5 66bc 978e 0bbd
000000f0: e4b4 71bd a3a3 753c 65a9 b2bd 8e11 c63a
00000100: f6c4 8fbd 9f1c a0bd 3216 55bd 92d4 f6bc
00000110: 2eac e3bc 8bae 52bd c9bb bdbb 0d32 e9bb
00000120: 2c88 8dbd 1044 bf3c 4eab eabc 2109 dfbc
00000130: ef56 66bd 48ff 42bd a2ac 11bb 4ade 9abd
00000140: 6698 5ebd ab55 d0bd f740 ccba 3ffb 7abc
00000150: c864 9ebb 89fb 2a3d d904 00bd 842d 1d3d
00000160: 6357 b4bd a17b b5bd 820c d2bc f130 6ebd
00000170: ee60 bbbd 3c59 69bc 4520 50bb c696 92bc
00000180: 03c5 67bc befa d9bc 431e 7cbd ac0b ccbb
00000190: 8dea e23b 25b8 4f3d dab1 95bd 75e2 05bd
000001a0: f7e9 03bd 575e 4f3c 90ed 9fbd 2d15 4c3c
000001b0: db6b 37bc cd9b 95bd 3b14 d43c 9d15 f1bc
000001c0: b3ea 2cbd 1087 65bd 026a 49bc 94f8 6fbc
000001d0: 8397 513c b556 323c 8277 04bd c359 69bd
000001e0: 292e 9f3d 70b1 0dbd 6626 3bbb 59ef 68bd
000001f0: 169d bbbc ccf6 8abd 35a3 47bc 24ee 543c
00000200: d0d1 e6bc 778f 143c 2144 7bbc 8009 b83c
00000210: 4852 66bd 7ee5 4ebd 0794 563d a513 7dbc
00000220: 245c 03bd bfe4 62bd b455 90bd c78e 9abd
00000230: d6fc 61bd 44b4 193d 7b26 42bd 75b6 d7ba
00000240: 016d b3bd 5837 7bbd 309f a2bd 0d8f 4abd
00000250: 4757 17bd f3cf e1bc 6683 00bd 1671 9ebd
00000260: 4f59 f2ba 75ac abbd c414 51bd b11b 3d3d
00000270: 75f7 313b 1e31 e0bc 6738 5cba f413 4ebd
00000280: 8ae6 60bc 69dd 6abc 327b 20bc 3fa2 9d3d
00000290: cc33 81bc 2d80 0d3c 0382 9cbd d8b7 23bc
000002a0: c5c7 0bbd f59c b7bc 2638 82bd 4cd8 60bd
000002b0: da27 10bc 40da 33bd 7221 3d3b 6e18 97bd
000002c0: 4666 d7bc 75e7 93bd 9051 afbd 86e6 94bd
000002d0: df91 1dbd b2ff 00bd 2759 d1bb dd91 da3c
000002e0: a144 34bc 1a06 90bd 5334 66bd c8fd 67bc
000002f0: 18fc 983b 6f4c 5dbd 6270 d8bc 98e7 0abd
00000300: 2d8b f9bc 0b72 bbbd d6db 8e3a cf36 273c
00000310: 61bb eabc 7066 3abc 6390 09bd eab9 75bc
00000320: f8aa 93bd c5ed b4bc 3a35 9fba e8bf 0cbd
00000330: 70ff adbd 3c6c 1abd 5555 ccbb d63f 90bd
00000340: 2056 87bd ef88 84bd 34ad 8d3c 5393 383a
00000350: e468 a33d 553e 36bd f892 8bbd 7a83 75bd
00000360: a022 48bd f6e9 a9bc 0a1a 4cbd fd16 d0bc
00000370: 65aa d4bc 824d 2cbd 44bf 9ebc 081e 3bbb
00000380: 86de 40bc 2f3d 45bd 2349 043b 7c54 183d
00000390: d736 cbbd 8284 71bd 66ee a5bd dbb1 ccbc
000003a0: bf1a 48bd b1c6 7cbd 1fd8 5aba 281f 10bd
000003b0: 2c0e 2fbd e88e d83b 3917 d23b c10c a5bd
000003c0: 25d1 193d 42c2 563b cb39 49bd a502 f83c
000003d0: 8ec2 1cbc 661d aebd a91c 07bd 969e 1a3b
000003e0: 477e 3dbd 47e1 6bbd 8aed 76bd 8b43 e0bc
000003f0: 6d44 32bc 644d b3bc bd88 80bb a1e5 5c3b

fc2.weight f4 [128, 256]
0.04176562 -0.02810682 0.09448201 -0.010947676 -0.014897107 0.013070385 0.08125339 -0.06820896
0.035706736 -0.09458631 -0.10845761 0.04901733 -0.074197255 0.047276866 0.05878129 -0.102640785
0.05636768 0.09813415 0.0003046758 0.043166574 0.06991326 0.12958676 0.050751306 0.017590897
0.29640323 0.1841881 -0.053349584 0.12027163 -0.121927395 0.0044667595 -0.024725486 -0.058612403
0.005970463 -0.11182731 0.06322288 0.09727475 0.084335454 -0.030710043 0.14607051 -0.01603591
0.029356755 -0.025248647 -0.04863354 -0.08850753 0.19769663 -0.044453837 0.0061619645 -0.0015479244
0.007952589 0.04052724 0.050331343 0.09908232 0.0796592 -0.026638173 0.028833032 -0.051769815
0.023565376 0.0018261385 -0.0042227106 -0.009144968 -0.16184689 -0.13078561 0.034842603 0.09518427
0.057333022 0.053190432 0.028679619 0.14301813 0.054442957 -0.18072526 0.043361943 0.0018175846
-0.024287555 0.24247567 0.022748599 0.059036653 0.01008071 -0.10182272 -0.013308479 -0.012155245
0.0076527335 -0.0109030185 0.0135025205 -0.21049555 -0.0061467136 0.097894505 0.03757261 -0.19158591
-0.041843373 0.03336583 -0.0050452095 -0.024342265 -0.01989171 0.093915544 0.0077564106 -0.007008079
0.07466598 -0.021078087 -0.015992695 -0.0024718675 -0.1444341 0.0070631504 0.03487414 -0.05012068
0.04413087 0.008789087 -0.09770734 0.06362395 0.13583082 0.08921263 -0.06769528 0.008565514
0.07226615 0.025782833 -0.1203635 -0.14264496 0.021523666 -0.22856174 0.06064301 -0.06702476
0.10398305 -0.028666532 -0.0485646 -0.1091132 -0.008011445 0.028419828 -0.028069155 -0.040770985
0.07552819 -0.16810276 -0.020286862 0.06435464 0.06627281 -0.025520332 -0.007749245 -0.0150552625
-0.14571057 -0.00056499953 -0.0014797046 0.0942148 0.0008110802 -0.076983005 0.016611097 -0.036189083
0.014501092 0.04488941 0.02520257 -0.12526076 0.01587817 0.024947884 -0.018973297 0.02042154
-0.103447184 -0.05959228 0.21974291 0.06339665 0.0019381072 -0.14974932 -0.08702831 0.076113865
-0.061188374 0.0090343775 0.06343229 -0.004517883 0.016776308 0.0439814 0.050578207 -0.056169413
-0.06385413 -0.001598842 -0.060650315 0.08635526 0.004507528 0.0141659705 -0.0934499 0.13210244
0.032173604 -0.02611371 0.021040818 0.047991313 -0.02542075 -0.16431774 -0.020253595 -0.026510317
0.08542583 -0.018294046 -0.0022254833 0.024140479 0.040727906 -0.22584936 -0.04443013 0.12605488
0.053371407 -0.17109674 -0.033128705 -0.007171733 -0.023656864 -0.04342073 0.018184671 0.09946836
0.01908822 -0.09211214 -0.03748474 0.05490866 0.12855746 0.049024977 0.041868635 -0.026442256
-0.074936725 -0.20231448 0.10346349 -0.007936041 -0.06166519 -0.0025201188 -0.15906563 -0.063074276
0.07747453 0.109283365 0.020559138 0.035458926 0.01880672 0.03931776 -0.050303366 -0.054791085
-0.07360182 -0.1111392 -0.011798456 -0.2498001 0.017048579 0.050583143 0.035455585 0.17624445
0.03064264 0.0059844707 -0.023225782 -0.008892436 0.099597245 0.01709517 -0.11769524 0.11114293
-0.03863943 -0.0052540954 0.05019895 -0.024935253 -0.089607164 0.019239824 -0.10454916 0.06197924
-0.04633284 0.07434272 0.109750055 0.0070919697 0.0072741825 -0.042740922 -0.087975204 -0.07110687
00000000: 6d12 2b3d 4640 e6bc c97f c13d e25d 33bc
00000010: ff12 74bc 2b25 563c 2d68 a63d 24b1 8bbd
00000020: 3a41 123d 78b6 c1bd 061f debd 65c6 483d
00000030: bbf4 97bd 63a5 413d a6c4 703d 5535 d2bd
00000040: cce1 663d 8ffa c83d e5bc 9f39 6fcf 303d
00000050: af2e 8f3d 64b2 043e 9ae0 4f3d c91a 903c
00000060: 2ac2 973e ce9b 3c3e 1885 5abd f950 f63d
00000070: 12b5 f9bd e55d 923b 1a8d cabc 8f13 70bd
00000080: e0a3 c33b b705 e5bd ff7a 813d fc37 c73d
00000090: 11b8 ac3d a193 fbbc 8293 153e be5d 83bc
000000a0: 947d f03c 40d6 cebc f633 47bd 7043 b5bd
000000b0: fc70 4a3e 3a15 36bd 4eea c93b b9e3 caba
000000c0: 934b 023c e4ff 253d 3d28 4e3d aceb ca3d
000000d0: 5d24 a33d 4c38 dabc 4033 ec3c 960c 54bd
000000e0: 2d0c c13c 0a5b ef3a aa5e 8abb c7d4 15bc
000000f0: 31bb 25be aaec 05be 1eb7 0e3d f8ef c23d
00000100: 08d6 6a3d 36de 593d 85f1 ea3c 5873 123e
00000110: 94ff 5e3d 0b10 39be 4b9c 313d 053c ee3a
00000120: b2f6 c6bc 8b4b 783e 455b ba3c 6bd0 713d
00000130: 9029 253c 6e88 d0bd cf0b 5abc cb26 47bc
00000140: c8c3 fa3b 93a2 32bc ad39 5d3c 258c 57be
00000150: 5f6a c9bb ea7c c83d bde5 193d 192f 44be
00000160: f563 2bbd 9caa 083d 4952 a5bb 6e69 c7bc
00000170: f0f3 a2bc cb56 c03d 7d29 fe3b 07a4 e5bb
00000180: 7aea 983d f4ab acbc 1d03 83bc 0eff 21bb
00000190: 88e6 13be 0072 e73b 30d8 0e3d 584b 4dbd
000001a0: 92c2 343d 1a00 103c c91a c8bd 464d 823d
000001b0: 3c17 0b3e 1db5 b63d d3a3 8abd 5f56 0c3c
000001c0: 4600 943d 8536 d33c 2481 f6bd 8511 12be
000001d0: 6652 b03c 170c 6abe ce64 783d 4744 89bd
000001e0: 11f5 d43d 13d6 eabc adeb 46bd be76 dfbd
000001f0: 7042 03bc b3d0 e83c 49f1 e5bc 7aff 26bd
00000200: 86ae 9a3d 2123 2cbe a230 a6bc 5ecc 833d
00000210: 0aba 873d 0410 d1bc 61ed fdbb 59aa 76bc
00000220: 2735 15be 7a1c 14ba a6f2 c1ba b0f3 c03d
00000230: ac9e 543a 44a9 9dbd ff13 883c 013b 14bd
00000240: fd95 6d3c f5dd 373d 9f75 ce3c 5b44 00be
00000250: f012 823c 815f cc3c e36d 9bbc 134b a73c
00000260: 1edc d3bd 0917 74bd 4904 613e 1ad6 813d
00000270: 1608 fe3a e357 19be e63b b2bd 96e1 9b3d
00000280: a9a0 7abd ed04 143c cae8 813d c00a 94bb
00000290: 786e 893c d725 343d 182b 4f3d e611 66bd
000002a0: f4c5 82bd 3c90 d1ba 776c 78bd 07db b03d
000002b0: e3b3 933b 6318 683c a962 bfbd dd45 073e
000002c0: 78c8 033d 6bec d5bc cb5d ac3c 8a92 443d
000002d0: 2d3f d0bc e942 28be deea a5bc 2a2c d9bc
000002e0: bdf3 ae3d 65dd 95bc 6ad9 11bb 41c2 c53c
000002f0: 4ed2 263d 0e45 67be 5efc 35bd 8814 013e
00000300: fa9b 5a3d fc33 2fbe f7b1 07bd db00 ebbb
00000310: 0acc c1bc efd9 31bd 05f8 943c 11b6 cb3d
00000320: e65e 9c3c 4aa5 bcbd 9989 19bd e7e7 603d
00000330: 91a4 033e 6ace 483d 727e 2b3d 6e9d d8bc
00000340: 6d78 99bd 872b 4fbe abe4 d33d 2b06 02bc
00000350: a394 7cbd 9428 25bb 1ae2 22be 162d 81bd
00000360: f7aa 9e3d f5cf df3d a36b a83c 613d 113d
00000370: 8d10 9a3c a90b 213d e70a 4ebd 9e6c 60bd
00000380: 8dbc 96bd f39c e3bd 504e 41bc 99cb 7fbe
00000390: 76a9 8b3c 4530 4f3d e039 113d 6d79 343e
000003a0: 4606 fb3c 6119 c43b ff43 bebc 94b1 11bc
000003b0: a4f9 cb3d 2c0b 8c3c 340a f1bd e89e e33d
000003c0: 6144 1ebd 8c2a acbb 6a9d 4d3d 0445 ccbc
000003d0: f683 b7bd d69c 9d3c df1d d6bd f2dd 7d3d
000003e0: 81c7 3dbd ff40 983d a3c4 e03d c163 e83b
000003f0: 445c ee3b 1b11 2fbd 582c b4bd 7ba0 91bd

fc2.bias f4 [128]
0.10317584 -0.069707334 0.37212715 -0.07376009 0.013833763 0.05708677 -0.09287095 0.07897519
0.006804819 -0.059081554 -0.061423488 0.12671386 -0.03301547 -0.013419119 -0.07369459 -0.016965168
0.026858922 0.073474854 -0.13942106 0.022335589 0.07133218 0.030525528 0.15205325 0.10982535
0.05388057 -0.01847931 0.056806624 -0.12816711 0.041087378 -0.0102040665 0.029240685 0.00082128064
0.12231857 -0.05999832 0.021975538 0.07480261 0.013273408 -0.043572508 0.11000588 0.041563164
-0.020627195 0.15839647 -0.06157238 0.046759658 -0.13607435 0.13418181 0.07797117 0.005321901
-0.07210741 0.04476291 0.12599479 -0.063006915 0.0056043104 -0.1200727 -0.005344058 0.040021177
-0.0020899514 -0.05833661 0.03658923 0.02501981 0.07099245 0.11886175 0.21930908 0.06521417
0.0988379 -0.17198141 0.0070947143 -0.0068945545 -0.086140454 -0.03644062 -0.086924426 0.028441908
-0.06174416 -0.011687951 -0.035401694 0.10060671 0.030476004 0.012071445 0.031528383 -0.1094881
-0.03560424 0.02010984 0.13324408 0.006263721 -0.00613123 -0.05166983 0.17396002 0.13842277
0.14867857 0.09084079 -0.025704615 0.061223093 -0.05334897 -0.02106941 0.03652073 0.003715446
-0.037889097 -0.11636854 0.037111845 -0.025807234 -0.051366553 -0.014945458 0.02172488 -0.107438974
0.016822124 0.10099835 -0.062569484 0.01721174 0.0933095 -0.0112294955 -0.0058137323 -0.018370043
-0.03343223 -0.033268336 0.09384284 0.095742114 -0.11327695 0.11300893 0.06498596 0.08533638
-0.022508267 0.20043638 0.060671344 0.12371077 -0.008284217 0.015063 -0.097791255 0.07654492
00000000: db4d d33d b8c2 8ebd 7387 be3e 880f 97bd
00000010: 02a7 623c d1d3 693d 2033 bebd bfbd a13d
00000020: f6fa de3b 80ff 71bd 3297 7bbd 47c1 013e
00000030: 3b3b 07bd dddb 5bbc 30ed 96bd 89fa 8abc
00000040: 3e07 dc3c fc79 963d 65c4 0ebe 20f9 b63c
00000050: 9b16 923d ac10 fa3c d9b3 1b3e 1dec e03d
00000060: dfb1 5c3d ec61 97bc 10ae 683d 3d3e 03be
00000070: 3d4b 283d f52e 27bc 298a ef3c 364b 573a
00000080: 2982 fa3d ccc0 75bd 0b06 b43c 1c32 993d
00000090: b578 593c 1679 32bd c34a e13d 233e 2a3d
000000a0: 5dfa a8bc af32 223e 5233 7cbd 0e87 3f3d
000000b0: 1357 0bbe f566 093e 59af 9f3d 5763 ae3b
000000c0: 0dad 93bd 5059 373d c704 013e c509 81bd
000000d0: 5da4 b73b ade8 f5bd 351d afbb 3fed 233d
000000e0: 91f7 08bb 5ff2 6ebd 97de 153d 58f6 cc3c
000000f0: 7d64 913d ca6d f33d 8f92 603e 028f 853d
00000100: 866b ca3d e51b 30be c77a e83b b7eb e1bb
00000110: 686a b0bd c242 15bd 6f05 b2bd 01ff e83c
00000120: 72e7 7cbd d27e 3fbc 5e01 11bd e40a ce3d
00000130: d0a8 f93c 4fc7 453c e823 013d 4c3b e0bd
00000140: c0d5 11bd 64bd a43c 2371 083e e63f cd3b
00000150: 7ce8 c8bb bea3 53bd 9322 323e b3be 0d3e
00000160: 323f 183e bc0a ba3d 7c92 d2bc 11c5 7a3d
00000170: 7384 5abd c199 acbc c396 153d d77e 733b
00000180: 9931 1bbd a152 eebd 9702 183d b169 d3bc
00000190: bc65 52bd cbdd 74bc 60f8 b13c f708 dcbd
000001a0: 8dce 893c 39d8 ce3d 6e24 80bd a3ff 8c3c
000001b0: 0d19 bf3d ebfb 37bc 1f81 bebb c67c 96bc
000001c0: 3cf0 08bd 6144 08bd ad30 c03d 7114 c43d
000001d0: bffd e7bd 3a71 e73d 5c17 853d d7c4 ae3d
000001e0: 4263 b8bc 323f 4d3e 8482 783d 125c fd3d
000001f0: 86ba 07bc cdca 763c c846 c8bd 95c3 9c3d

fc3.weight f4 [10, 128]
0.009133047 0.07801617 0.041514356 0.038910974 0.03850188 -0.24909678 0.18224293 -0.14828227
-0.30521962 -0.045712855 0.10885858 0.060306367 -0.10683348 0.06695966 0.023198916 0.029464448
-0.049940217 -0.2462558 -0.06629647 0.08080612 -0.03899956 0.09503314 -0.03934385 0.0104425335
0.081256 -0.19749947 0.02501494 -0.05063339 -0.23633999 -0.077072285 -0.0521908 0.04716971
0.015168899 0.039738376 0.094723925 -0.3127525 -0.15061863 0.004677706 -0.06534662 0.06734744
-0.01322786 -0.14195123 -0.034951504 -0.315706 -0.16982357 -0.14539103 -0.0032938344 0.06782864
0.020225577 0.011833876 -0.13841823 0.039710205 0.07357562 0.00864398 -0.2697353 0.027141245
0.026665814 -0.15569067 0.12199554 -0.051788148 -0.08550032 -0.088701025 -0.032655254 -0.03716023
-0.026914662 0.030867146 0.07849101 -0.06832035 0.029875096 0.070441104 -0.017992638 -0.12082516
0.031726055 -0.033560026 -0.00068905856 -0.19300175 0.03833713 -0.110985294 -0.06582799 0.051991753
-0.028678112 0.075978674 -0.20223895 0.23951434 0.095468976 -0.07335651 -0.019724555 -0.02629714
-0.29483092 0.02295468 0.16463272 0.028564872 -0.14445472 -0.0063079065 0.12987003 0.020857928
-0.01468404 -0.14074668 -0.1887714 -0.20946059 0.078906015 -0.083196685 -0.3142648 -0.13197522
-0.15875016 -0.06622064 -0.005260736 -0.03205577 -0.07467743 0.049560968 0.132145 0.013166923
-0.058233403 -0.0807597 -0.025856052 -0.040487207 -0.12746578 -0.034092177 0.06629922 -0.2367977
0.03740139 -0.01139499 0.014022232 -0.025960477 -0.13275613 0.10381431 -0.0067338543 0.050526936
-0.1281546 0.22060017 -0.073816985 -0.06425626 -0.21078193 0.037527658 -0.020284338 -0.112063445
0.032379232 -0.26632828 -0.05715704 0.04750983 0.058967784 0.01298659 -0.26946425 -0.05468185
-0.20567799 -0.001489871 -0.12525818 -0.03237556 -0.124192365 -0.012162681 -0.15570548 -0.069899485
-0.14247575 -0.038189694 0.0014242961 -0.16536696 0.1492619 0.021330636 0.0014385807 0.32286978
-0.087526664 0.19341521 0.097403586 -0.15559082 0.123845324 0.117231704 -0.14895606 -0.5619389
-0.05535612 -0.32494125 -0.105457865 -0.25413632 0.0048912265 -0.056795564 -0.18147069 -0.3863976
0.03481832 0.08208514 -0.13472919 -0.27017358 -0.06355654 -0.14265722 -0.45090443 -0.25498602
-0.0006752084 -0.50298774 -0.20414451 0.15110385 -0.2809369 -0.1490956 -0.080345154 0.092183284
0.04370557 -0.38192654 -0.13698117 0.1203374 -0.14320123 0.10776253 -0.022727882 0.09939404
-0.0830948 0.10415291 -0.03592068 -0.36661 -0.18468368 0.22741438 0.0012765486 0.048721828
0.12489578 -0.1427613 0.1450608 -0.22043732 0.027344685 -0.0534522 0.059786603 0.1137817
-0.2589676 -0.080846466 0.047271054 0.06669064 -0.09547103 -0.05992558 -0.022739254 -0.15710615
-0.091011316 -0.4222326 0.09966279 0.1035307 -0.014264284 0.18084878 -0.00083589664 0.21932043
0.035807226 -0.25782216 -0.4144976 -0.22727667 -0.15599869 -0.24502447 -0.1663762 0.055723626
-0.18311477 -0.051909745 0.2775556 -0.270912 0.1725059 0.060766052 -0.2699897 -0.17119104
-0.15764436 -0.087470315 -0.104987554 0.04471719 -0.24115248 -0.18772066 -0.055282213 0.016019043
00000000: c7a2 153c f1c6 9f3d f50a 2a3d 1d61 1f3d
00000010: 26b4 1d3d 3a13 7fbe e49d 3a3e 4fd7 17be
00000020: bf45 9cbe 673d 3bbd 3ff1 de3d cf03 773d
00000030: 83cb dabd 2522 893d a70b be3c 6d5f f13c
00000040: 1d8e 4cbd 7b2a 7cbe 72c6 87bd ae7d a53d
00000050: 01be 1fbd bca0 c23d 0427 21bd 2917 2b3c
00000060: 8c69 a63d 4d3d 4abe 22ec cc3c f564 4fbd
00000070: 1c03 72be 13d8 9dbd 05c6 55bd 0735 413d
00000080: f986 783c b5c4 223d 9efe c13d 1821 a0be
00000090: c53b 1abe 7147 993b 73d4 85bd 74ed 893d
000000a0: abb9 58bc aa5b 11be 4f29 0fbd 38a4 a1be
000000b0: 3be6 2dbe 63e1 14be 5fdd 57bb bee9 8a3d
000000c0: 1cb0 a53c e0e2 413c 82bd 0dbe 2ba7 223d
000000d0: d1ae 963d 7b9f 0d3c bf1a 8abe 5157 de3c
000000e0: 4472 da3c 606d 1fbe ccd8 f93d cf1f 54bd
000000f0: cb1a afbd e2a8 b5bd 84c1 05bd 5335 18bd
00000100: 237c dcbc 19dd fc3c e5bf a03d 8aeb 8bbd
00000110: 9ebc f43c 6d43 903d 4c65 93bc 2e73 f7bd
00000120: 2ef3 013d 3d76 09bd f0a1 34ba 40a2 45be
00000130: 6507 1d3d 424c e3bd d3d0 86bd 4ef5 543d
00000140: 5cee eabc b59a 9b3d ba17 4fbe 3f43 753e
00000150: 3d85 c33d f03b 96bd 6495 a1bc 1a6d d7bc
00000160: 14f4 96be 740b bc3c 7b95 283e e100 ea3c
00000170: f0eb 13be 8eb2 cebb a6fc 043e 3fde aa3c
00000180: 5495 70bc e61f 10be 4a4d 41be d67c 56be
00000190: 7a99 a13d 0663 aabd 51e7 a0be 8324 07be
000001a0: 678f 22be b09e 87bd 4162 acbb e94c 03bd
000001b0: 7bf0 98bd 7100 4b3d 0551 073e 14ba 573c
000001c0: 2686 6ebd 5765 a5bd 12d0 d3bc ead5 25bd
000001d0: 6486 02be 3da4 0bbd e3c7 873d 197b 72be
000001e0: 3332 193d 0db2 3abc 81bd 653c 11ab d4bc
000001f0: 39f1 07be 999c d43d aaa7 dcbb 55f5 4e3d
00000200: f63a 03be 03e5 613e 5c2d 97bd c998 83bd
00000210: 38d7 57be 9ab6 193d 572b a6bc 8581 e5bd
00000220: 16a0 043d 2e5c 88be 801d 6abd ab99 423d
00000230: 3488 713d b5c5 543c 38f7 89be 13fa 5fbd
00000240: 409d 52be c647 c3ba ae43 00be 3c9c 04bd
00000250: 9158 febd fb45 47bc 4271 1fbe 7627 8fbd
00000260: 2ae5 11be cc6c 1cbd 72af ba3a f555 29be
00000270: 1dd8 183e 96bd ae3c c28e bc3a 304f a53e
00000280: 2e41 b3bd a30e 463e 887b c73d 3353 1fbe
00000290: 9ea2 fd3d 2d17 f03d f087 18be 3adb 0fbf
000002a0: 19bd 62bd b35e a6be 4bfa d7bd 281e 82be
000002b0: 9546 a03b 77a2 68bd 74d3 39be e8d5 c5be
000002c0: a89d 0e3d 411c a83d 73f6 09be 3154 8abe
000002d0: ee29 82bd bc14 12be f2dc e6be 878d 82be
000002e0: 7800 31ba cec3 00bf 420b 51be f8ba 1a3e
000002f0: f6d6 8fbe 84ac 18be 008c a4bd 97ca bc3d
00000300: 9d04 333d e08b c3be cb44 0cbe 7473 f63d
00000310: 58a3 12be 9ab2 dc3d d32f babc 1a8f cb3d
00000320: 9b2d aabd 1f4e d53d 9021 13bd 4eb4 bbbe
00000330: b81d 3dbe 51df 683e dd51 a73a 8a90 473d
00000340: 5cc9 ff3d 0530 12be d18a 143e 52ba 61be
00000350: f601 e03c b2f0 5abd cce2 743d 6106 e93d
00000360: 6797 84be d592 a5bd 4b9f 413d 1a95 883d
00000370: 5186 c3bd 8674 75bd ac47 babc 6fe0 20be
00000380: 2464 babd df2e d8be 011c cc3d e707 d43d
00000390: beb4 69bc 6c30 393e 1320 5bba 8995 603e
000003a0: 99aa 123d 4401 84be 0839 d4be 37bb 68be
000003b0: 1fbe 1fbe b2e7 7abe 865e 2abe 753e 643d
000003c0: 7082 3bbe 509f 54bd c51b 8e3e fab4 8abe
000003d0: 63a5 303e d3e5 783d 173c 8abe b44c 2fbe
000003e0: 866d 21be a323 b3bd b703 d7bd 5f29 373d
000003f0: adf0 76be d839 40be 9a6f 62bd 5e3a 833c

fc3.bias f4 [10]
-0.06343741 -0.10612682 0.031508904 0.035635043 0.028031012 -0.12185134 -0.022613129 0.0017949743
0.18611915 -0.047651496
00000000: 79eb 81bd 0559 d9bd 7b0f 013d 0df6 113d
00000010: 4ba1 e53c 328d f9bd 2b3f b9bc 5845 eb3a
00000020: 0596 3e3e 372e 43bd
